…
FieldHockeyPenalty train size: 82
HorseRace train size: 91
ApplyLipstick train size: 79
CricketBowling train size: 97
RockClimbingIndoor train size: 99
Model: "sequential"
Model: "sequential"
_________________________________________________________________
_________________________________________________________________
 Layer (type)                Output Shape              Param #
 Layer (type)                Output Shape              Param #   
=================================================================
=================================================================
 conv_lstm2d (ConvLSTM2D)    (None, 20, 62, 62, 4)     1024
 conv_lstm2d (ConvLSTM2D)    (None, 20, 62, 62, 4)     1024      
 max_pooling3d (MaxPooling3  (None, 20, 31, 31, 4)     0
 max_pooling3d (MaxPooling3  (None, 20, 31, 31, 4)     0         
 D)
 D)                                                              
 time_distributed (TimeDist  (None, 20, 31, 31, 4)     0
 time_distributed (TimeDist  (None, 20, 31, 31, 4)     0         
 ributed)
 ributed)                                                        
 conv_lstm2d_1 (ConvLSTM2D)  (None, 20, 29, 29, 8)     3488
 conv_lstm2d_1 (ConvLSTM2D)  (None, 20, 29, 29, 8)     3488      
 max_pooling3d_1 (MaxPoolin  (None, 20, 15, 15, 8)     0
 max_pooling3d_1 (MaxPoolin  (None, 20, 15, 15, 8)     0         
 g3D)
 g3D)                                                            
 time_distributed_1 (TimeDi  (None, 20, 15, 15, 8)     0
 time_distributed_1 (TimeDi  (None, 20, 15, 15, 8)     0         
 stributed)
 stributed)                                                      
 conv_lstm2d_2 (ConvLSTM2D)  (None, 20, 13, 13, 14)    11144
 conv_lstm2d_2 (ConvLSTM2D)  (None, 20, 13, 13, 14)    11144     
 max_pooling3d_2 (MaxPoolin  (None, 20, 7, 7, 14)      0
 max_pooling3d_2 (MaxPoolin  (None, 20, 7, 7, 14)      0         
 g3D)
 g3D)                                                            
 time_distributed_2 (TimeDi  (None, 20, 7, 7, 14)      0
 time_distributed_2 (TimeDi  (None, 20, 7, 7, 14)      0         
 stributed)
 stributed)                                                      
 conv_lstm2d_3 (ConvLSTM2D)  (None, 20, 5, 5, 16)      17344
 conv_lstm2d_3 (ConvLSTM2D)  (None, 20, 5, 5, 16)      17344     
 max_pooling3d_3 (MaxPoolin  (None, 20, 3, 3, 16)      0
 max_pooling3d_3 (MaxPoolin  (None, 20, 3, 3, 16)      0         
 g3D)
 g3D)                                                            
 flatten (Flatten)           (None, 2880)              0
 flatten (Flatten)           (None, 2880)              0         
 dense (Dense)               (None, 101)               290981
 dense (Dense)               (None, 101)               290981    
=================================================================
=================================================================
Total params: 323981 (1.24 MB)
Total params: 323981 (1.24 MB)
Trainable params: 323981 (1.24 MB)
Trainable params: 323981 (1.24 MB)
Non-trainable params: 0 (0.00 Byte)
Non-trainable params: 0 (0.00 Byte)
_________________________________________________________________
…
