…
__________________________________________________________________________________________________
 Layer (type)                Output Shape                 Param #   Connected to
 Layer (type)                Output Shape                 Param #   Connected to                  
==================================================================================================
==================================================================================================
 input_1 (InputLayer)        [(None, 20, 64, 64, 3)]      0         []
 input_1 (InputLayer)        [(None, 20, 64, 64, 3)]      0         []                            
 conv3d (Conv3D)             (None, 20, 64, 64, 16)       1312      ['input_1[0][0]']
 conv3d (Conv3D)             (None, 20, 64, 64, 16)       1312      ['input_1[0][0]']             
 max_pooling3d (MaxPooling3  (None, 20, 32, 32, 16)       0         ['conv3d[0][0]']
 max_pooling3d (MaxPooling3  (None, 20, 32, 32, 16)       0         ['conv3d[0][0]']              
 D)
 D)                                                                                               
 batch_normalization (Batch  (None, 20, 32, 32, 16)       64        ['max_pooling3d[0][0]']
 batch_normalization (Batch  (None, 20, 32, 32, 16)       64        ['max_pooling3d[0][0]']       
 Normalization)
 Normalization)                                                                                   
 conv3d_1 (Conv3D)           (None, 20, 32, 32, 32)       13856     ['batch_normalization[0][0]']
 conv3d_1 (Conv3D)           (None, 20, 32, 32, 32)       13856     ['batch_normalization[0][0]'] 
 max_pooling3d_1 (MaxPoolin  (None, 20, 16, 16, 32)       0         ['conv3d_1[0][0]']
 max_pooling3d_1 (MaxPoolin  (None, 20, 16, 16, 32)       0         ['conv3d_1[0][0]']            
 g3D)
 g3D)                                                                                             
 batch_normalization_1 (Bat  (None, 20, 16, 16, 32)       128       ['max_pooling3d_1[0][0]']
 batch_normalization_1 (Bat  (None, 20, 16, 16, 32)       128       ['max_pooling3d_1[0][0]']     
 chNormalization)
 chNormalization)                                                                                 
 time_distributed (TimeDist  (None, 20, 8192)             0         ['batch_normalization_1[0][0]'
 time_distributed (TimeDist  (None, 20, 8192)             0         ['batch_normalization_1[0][0]'
 ributed)                                                           ]
 ributed)                                                           ]                             
 lstm (LSTM)                 (None, 20, 64)               2113792   ['time_distributed[0][0]']
 lstm (LSTM)                 (None, 20, 64)               2113792   ['time_distributed[0][0]']    
 permute (Permute)           (None, 64, 20)               0         ['lstm[0][0]']
 permute (Permute)           (None, 64, 20)               0         ['lstm[0][0]']                
 dense (Dense)               (None, 64, 20)               420       ['permute[0][0]']
 dense (Dense)               (None, 64, 20)               420       ['permute[0][0]']             
 attention_vec (Permute)     (None, 20, 64)               0         ['dense[0][0]']
 attention_vec (Permute)     (None, 20, 64)               0         ['dense[0][0]']               
 multiply (Multiply)         (None, 20, 64)               0         ['lstm[0][0]',
 multiply (Multiply)         (None, 20, 64)               0         ['lstm[0][0]',                
                                                                     'attention_vec[0][0]']
                                                                     'attention_vec[0][0]']       
 lambda (Lambda)             (None, 64)                   0         ['multiply[0][0]']
 lambda (Lambda)             (None, 64)                   0         ['multiply[0][0]']            
 flatten_1 (Flatten)         (None, 64)                   0         ['lambda[0][0]']
 flatten_1 (Flatten)         (None, 64)                   0         ['lambda[0][0]']              
 dense_1 (Dense)             (None, 128)                  8320      ['flatten_1[0][0]']
 dense_1 (Dense)             (None, 128)                  8320      ['flatten_1[0][0]']           
 dropout (Dropout)           (None, 128)                  0         ['dense_1[0][0]']
 dropout (Dropout)           (None, 128)                  0         ['dense_1[0][0]']             
 dense_2 (Dense)             (None, 101)                  13029     ['dropout[0][0]']
 dense_2 (Dense)             (None, 101)                  13029     ['dropout[0][0]']             
==================================================================================================
==================================================================================================
Total params: 2150921 (8.21 MB)
Total params: 2150921 (8.21 MB)
Trainable params: 2150825 (8.20 MB)
Trainable params: 2150825 (8.20 MB)
Non-trainable params: 96 (384.00 Byte)
…
