…
FieldHockeyPenalty train size: 82
HorseRace train size: 91
ApplyLipstick train size: 79
CricketBowling train size: 97
RockClimbingIndoor train size: 99
Model: "sequential"
Model: "sequential"
_________________________________________________________________
_________________________________________________________________
 Layer (type)                Output Shape              Param #
 Layer (type)                Output Shape              Param #   
=================================================================
=================================================================
 time_distributed (TimeDist  (None, 20, 64, 64, 16)    448
 time_distributed (TimeDist  (None, 20, 64, 64, 16)    448       
 ributed)
 ributed)                                                        
 activation (Activation)     (None, 20, 64, 64, 16)    0
 activation (Activation)     (None, 20, 64, 64, 16)    0         
 time_distributed_1 (TimeDi  (None, 20, 32, 32, 16)    0
 time_distributed_1 (TimeDi  (None, 20, 32, 32, 16)    0         
 stributed)
 stributed)                                                      
 dropout (Dropout)           (None, 20, 32, 32, 16)    0
 dropout (Dropout)           (None, 20, 32, 32, 16)    0         
 time_distributed_2 (TimeDi  (None, 20, 32, 32, 32)    4640
 time_distributed_2 (TimeDi  (None, 20, 32, 32, 32)    4640      
 stributed)
 stributed)                                                      
 activation_1 (Activation)   (None, 20, 32, 32, 32)    0
 activation_1 (Activation)   (None, 20, 32, 32, 32)    0         
 time_distributed_3 (TimeDi  (None, 20, 16, 16, 32)    0
 time_distributed_3 (TimeDi  (None, 20, 16, 16, 32)    0         
 stributed)
 stributed)                                                      
 dropout_1 (Dropout)         (None, 20, 16, 16, 32)    0
 dropout_1 (Dropout)         (None, 20, 16, 16, 32)    0         
 time_distributed_4 (TimeDi  (None, 20, 16, 16, 64)    18496
 time_distributed_4 (TimeDi  (None, 20, 16, 16, 64)    18496     
 stributed)
 stributed)                                                      
 activation_2 (Activation)   (None, 20, 16, 16, 64)    0
 activation_2 (Activation)   (None, 20, 16, 16, 64)    0         
 time_distributed_5 (TimeDi  (None, 20, 8, 8, 64)      0
 time_distributed_5 (TimeDi  (None, 20, 8, 8, 64)      0         
 stributed)
 stributed)                                                      
 time_distributed_6 (TimeDi  (None, 20, 4096)          0
 time_distributed_6 (TimeDi  (None, 20, 4096)          0         
 stributed)
 stributed)                                                      
 lstm (LSTM)                 (None, 64)                1065216
 lstm (LSTM)                 (None, 64)                1065216   
 dense (Dense)               (None, 101)               6565
 dense (Dense)               (None, 101)               6565      
=================================================================
=================================================================
Total params: 1095365 (4.18 MB)
Total params: 1095365 (4.18 MB)
Trainable params: 1095365 (4.18 MB)
Trainable params: 1095365 (4.18 MB)
Non-trainable params: 0 (0.00 Byte)
Non-trainable params: 0 (0.00 Byte)
_________________________________________________________________
…
