…
FieldHockeyPenalty train size: 82
HorseRace train size: 91
ApplyLipstick train size: 79
CricketBowling train size: 97
RockClimbingIndoor train size: 99
Model: "sequential"
Model: "sequential"
_________________________________________________________________
_________________________________________________________________
 Layer (type)                Output Shape              Param #
 Layer (type)                Output Shape              Param #   
=================================================================
=================================================================
 time_distributed (TimeDist  (None, 20, 64, 64, 16)    448
 time_distributed (TimeDist  (None, 20, 64, 64, 16)    448       
 ributed)
 ributed)                                                        
 time_distributed_1 (TimeDi  (None, 20, 16, 16, 16)    0
 time_distributed_1 (TimeDi  (None, 20, 16, 16, 16)    0         
 stributed)
 stributed)                                                      
 time_distributed_2 (TimeDi  (None, 20, 16, 16, 16)    0
 time_distributed_2 (TimeDi  (None, 20, 16, 16, 16)    0         
 stributed)
 stributed)                                                      
 time_distributed_3 (TimeDi  (None, 20, 16, 16, 32)    4640
 time_distributed_3 (TimeDi  (None, 20, 16, 16, 32)    4640      
 stributed)
 stributed)                                                      
 time_distributed_4 (TimeDi  (None, 20, 4, 4, 32)      0
 time_distributed_4 (TimeDi  (None, 20, 4, 4, 32)      0         
 stributed)
 stributed)                                                      
 time_distributed_5 (TimeDi  (None, 20, 4, 4, 32)      0
 time_distributed_5 (TimeDi  (None, 20, 4, 4, 32)      0         
 stributed)
 stributed)                                                      
 time_distributed_6 (TimeDi  (None, 20, 4, 4, 64)      18496
 time_distributed_6 (TimeDi  (None, 20, 4, 4, 64)      18496     
 stributed)
 stributed)                                                      
 time_distributed_7 (TimeDi  (None, 20, 2, 2, 64)      0
 time_distributed_7 (TimeDi  (None, 20, 2, 2, 64)      0         
 stributed)
 stributed)                                                      
 time_distributed_8 (TimeDi  (None, 20, 2, 2, 64)      0
 time_distributed_8 (TimeDi  (None, 20, 2, 2, 64)      0         
 stributed)
 stributed)                                                      
 time_distributed_9 (TimeDi  (None, 20, 2, 2, 64)      36928
 time_distributed_9 (TimeDi  (None, 20, 2, 2, 64)      36928     
 stributed)
 stributed)                                                      
 time_distributed_10 (TimeD  (None, 20, 1, 1, 64)      0
 time_distributed_10 (TimeD  (None, 20, 1, 1, 64)      0         
 istributed)
 istributed)                                                     
 time_distributed_11 (TimeD  (None, 20, 64)            0
 time_distributed_11 (TimeD  (None, 20, 64)            0         
 istributed)
 istributed)                                                     
 lstm (LSTM)                 (None, 32)                12416
 lstm (LSTM)                 (None, 32)                12416     
 dense (Dense)               (None, 101)               3333
 dense (Dense)               (None, 101)               3333      
=================================================================
=================================================================
Total params: 76261 (297.89 KB)
Total params: 76261 (297.89 KB)
Trainable params: 76261 (297.89 KB)
Trainable params: 76261 (297.89 KB)
Non-trainable params: 0 (0.00 Byte)
Non-trainable params: 0 (0.00 Byte)
_________________________________________________________________
…
